use gpu
load model snapshots/chaconne_model_2022-05-08_00-33-28
model:  WaveNetModel(
  (filter_convs): ModuleList(
    (0): Conv1d(32, 32, kernel_size=(2,), stride=(1,))
    (1): Conv1d(32, 32, kernel_size=(2,), stride=(1,))
    (2): Conv1d(32, 32, kernel_size=(2,), stride=(1,))
    (3): Conv1d(32, 32, kernel_size=(2,), stride=(1,))
    (4): Conv1d(32, 32, kernel_size=(2,), stride=(1,))
    (5): Conv1d(32, 32, kernel_size=(2,), stride=(1,))
    (6): Conv1d(32, 32, kernel_size=(2,), stride=(1,))
    (7): Conv1d(32, 32, kernel_size=(2,), stride=(1,))
    (8): Conv1d(32, 32, kernel_size=(2,), stride=(1,))
    (9): Conv1d(32, 32, kernel_size=(2,), stride=(1,))
    (10): Conv1d(32, 32, kernel_size=(2,), stride=(1,))
    (11): Conv1d(32, 32, kernel_size=(2,), stride=(1,))
    (12): Conv1d(32, 32, kernel_size=(2,), stride=(1,))
    (13): Conv1d(32, 32, kernel_size=(2,), stride=(1,))
    (14): Conv1d(32, 32, kernel_size=(2,), stride=(1,))
    (15): Conv1d(32, 32, kernel_size=(2,), stride=(1,))
    (16): Conv1d(32, 32, kernel_size=(2,), stride=(1,))
    (17): Conv1d(32, 32, kernel_size=(2,), stride=(1,))
    (18): Conv1d(32, 32, kernel_size=(2,), stride=(1,))
    (19): Conv1d(32, 32, kernel_size=(2,), stride=(1,))
    (20): Conv1d(32, 32, kernel_size=(2,), stride=(1,))
    (21): Conv1d(32, 32, kernel_size=(2,), stride=(1,))
    (22): Conv1d(32, 32, kernel_size=(2,), stride=(1,))
    (23): Conv1d(32, 32, kernel_size=(2,), stride=(1,))
    (24): Conv1d(32, 32, kernel_size=(2,), stride=(1,))
    (25): Conv1d(32, 32, kernel_size=(2,), stride=(1,))
    (26): Conv1d(32, 32, kernel_size=(2,), stride=(1,))
    (27): Conv1d(32, 32, kernel_size=(2,), stride=(1,))
    (28): Conv1d(32, 32, kernel_size=(2,), stride=(1,))
    (29): Conv1d(32, 32, kernel_size=(2,), stride=(1,))
  )
  (gate_convs): ModuleList(
    (0): Conv1d(32, 32, kernel_size=(2,), stride=(1,))
    (1): Conv1d(32, 32, kernel_size=(2,), stride=(1,))
    (2): Conv1d(32, 32, kernel_size=(2,), stride=(1,))
    (3): Conv1d(32, 32, kernel_size=(2,), stride=(1,))
    (4): Conv1d(32, 32, kernel_size=(2,), stride=(1,))
    (5): Conv1d(32, 32, kernel_size=(2,), stride=(1,))
    (6): Conv1d(32, 32, kernel_size=(2,), stride=(1,))
    (7): Conv1d(32, 32, kernel_size=(2,), stride=(1,))
    (8): Conv1d(32, 32, kernel_size=(2,), stride=(1,))
    (9): Conv1d(32, 32, kernel_size=(2,), stride=(1,))
    (10): Conv1d(32, 32, kernel_size=(2,), stride=(1,))
    (11): Conv1d(32, 32, kernel_size=(2,), stride=(1,))
    (12): Conv1d(32, 32, kernel_size=(2,), stride=(1,))
    (13): Conv1d(32, 32, kernel_size=(2,), stride=(1,))
    (14): Conv1d(32, 32, kernel_size=(2,), stride=(1,))
    (15): Conv1d(32, 32, kernel_size=(2,), stride=(1,))
    (16): Conv1d(32, 32, kernel_size=(2,), stride=(1,))
    (17): Conv1d(32, 32, kernel_size=(2,), stride=(1,))
    (18): Conv1d(32, 32, kernel_size=(2,), stride=(1,))
    (19): Conv1d(32, 32, kernel_size=(2,), stride=(1,))
    (20): Conv1d(32, 32, kernel_size=(2,), stride=(1,))
    (21): Conv1d(32, 32, kernel_size=(2,), stride=(1,))
    (22): Conv1d(32, 32, kernel_size=(2,), stride=(1,))
    (23): Conv1d(32, 32, kernel_size=(2,), stride=(1,))
    (24): Conv1d(32, 32, kernel_size=(2,), stride=(1,))
    (25): Conv1d(32, 32, kernel_size=(2,), stride=(1,))
    (26): Conv1d(32, 32, kernel_size=(2,), stride=(1,))
    (27): Conv1d(32, 32, kernel_size=(2,), stride=(1,))
    (28): Conv1d(32, 32, kernel_size=(2,), stride=(1,))
    (29): Conv1d(32, 32, kernel_size=(2,), stride=(1,))
  )
  (residual_convs): ModuleList(
    (0): Conv1d(32, 32, kernel_size=(1,), stride=(1,))
    (1): Conv1d(32, 32, kernel_size=(1,), stride=(1,))
    (2): Conv1d(32, 32, kernel_size=(1,), stride=(1,))
    (3): Conv1d(32, 32, kernel_size=(1,), stride=(1,))
    (4): Conv1d(32, 32, kernel_size=(1,), stride=(1,))
    (5): Conv1d(32, 32, kernel_size=(1,), stride=(1,))
    (6): Conv1d(32, 32, kernel_size=(1,), stride=(1,))
    (7): Conv1d(32, 32, kernel_size=(1,), stride=(1,))
    (8): Conv1d(32, 32, kernel_size=(1,), stride=(1,))
    (9): Conv1d(32, 32, kernel_size=(1,), stride=(1,))
    (10): Conv1d(32, 32, kernel_size=(1,), stride=(1,))
    (11): Conv1d(32, 32, kernel_size=(1,), stride=(1,))
    (12): Conv1d(32, 32, kernel_size=(1,), stride=(1,))
    (13): Conv1d(32, 32, kernel_size=(1,), stride=(1,))
    (14): Conv1d(32, 32, kernel_size=(1,), stride=(1,))
    (15): Conv1d(32, 32, kernel_size=(1,), stride=(1,))
    (16): Conv1d(32, 32, kernel_size=(1,), stride=(1,))
    (17): Conv1d(32, 32, kernel_size=(1,), stride=(1,))
    (18): Conv1d(32, 32, kernel_size=(1,), stride=(1,))
    (19): Conv1d(32, 32, kernel_size=(1,), stride=(1,))
    (20): Conv1d(32, 32, kernel_size=(1,), stride=(1,))
    (21): Conv1d(32, 32, kernel_size=(1,), stride=(1,))
    (22): Conv1d(32, 32, kernel_size=(1,), stride=(1,))
    (23): Conv1d(32, 32, kernel_size=(1,), stride=(1,))
    (24): Conv1d(32, 32, kernel_size=(1,), stride=(1,))
    (25): Conv1d(32, 32, kernel_size=(1,), stride=(1,))
    (26): Conv1d(32, 32, kernel_size=(1,), stride=(1,))
    (27): Conv1d(32, 32, kernel_size=(1,), stride=(1,))
    (28): Conv1d(32, 32, kernel_size=(1,), stride=(1,))
    (29): Conv1d(32, 32, kernel_size=(1,), stride=(1,))
  )
  (skip_convs): ModuleList(
    (0): Conv1d(32, 1024, kernel_size=(1,), stride=(1,))
    (1): Conv1d(32, 1024, kernel_size=(1,), stride=(1,))
    (2): Conv1d(32, 1024, kernel_size=(1,), stride=(1,))
    (3): Conv1d(32, 1024, kernel_size=(1,), stride=(1,))
    (4): Conv1d(32, 1024, kernel_size=(1,), stride=(1,))
    (5): Conv1d(32, 1024, kernel_size=(1,), stride=(1,))
    (6): Conv1d(32, 1024, kernel_size=(1,), stride=(1,))
    (7): Conv1d(32, 1024, kernel_size=(1,), stride=(1,))
    (8): Conv1d(32, 1024, kernel_size=(1,), stride=(1,))
    (9): Conv1d(32, 1024, kernel_size=(1,), stride=(1,))
    (10): Conv1d(32, 1024, kernel_size=(1,), stride=(1,))
    (11): Conv1d(32, 1024, kernel_size=(1,), stride=(1,))
    (12): Conv1d(32, 1024, kernel_size=(1,), stride=(1,))
    (13): Conv1d(32, 1024, kernel_size=(1,), stride=(1,))
    (14): Conv1d(32, 1024, kernel_size=(1,), stride=(1,))
    (15): Conv1d(32, 1024, kernel_size=(1,), stride=(1,))
    (16): Conv1d(32, 1024, kernel_size=(1,), stride=(1,))
    (17): Conv1d(32, 1024, kernel_size=(1,), stride=(1,))
    (18): Conv1d(32, 1024, kernel_size=(1,), stride=(1,))
    (19): Conv1d(32, 1024, kernel_size=(1,), stride=(1,))
    (20): Conv1d(32, 1024, kernel_size=(1,), stride=(1,))
    (21): Conv1d(32, 1024, kernel_size=(1,), stride=(1,))
    (22): Conv1d(32, 1024, kernel_size=(1,), stride=(1,))
    (23): Conv1d(32, 1024, kernel_size=(1,), stride=(1,))
    (24): Conv1d(32, 1024, kernel_size=(1,), stride=(1,))
    (25): Conv1d(32, 1024, kernel_size=(1,), stride=(1,))
    (26): Conv1d(32, 1024, kernel_size=(1,), stride=(1,))
    (27): Conv1d(32, 1024, kernel_size=(1,), stride=(1,))
    (28): Conv1d(32, 1024, kernel_size=(1,), stride=(1,))
    (29): Conv1d(32, 1024, kernel_size=(1,), stride=(1,))
  )
  (start_conv): Conv1d(256, 32, kernel_size=(1,), stride=(1,))
  (end_conv_1): Conv1d(1024, 512, kernel_size=(1,), stride=(1,))
  (end_conv_2): Conv1d(512, 256, kernel_size=(1,), stride=(1,))
)
receptive field:  3070
parameter count:  1834592
one hot input
the dataset has 598277 items
start training...
epoch 0
one training step does take approximately 0.22133178234100342 seconds)
loss at step 200: tensor(2.7750, device='cuda:0')
loss at step 400: tensor(2.7919, device='cuda:0')
validation loss: tensor(2.8982, device='cuda:0')
validation accuracy: tensor(13.6008, device='cuda:0')%
…
